nlp_chatbot/data.pth (torch, 5285 bytes, 6 tensors)

l1.weight f4 [8, 54]
000000 ee 2f f4 3e 87 73 db 3e ef 3d 01 3f fd 02 20 3f
       0.47692817 0.42861578 0.5048513 0.6250456
000010 94 7c 1f 3f 45 ff 02 bf 08 bc ad 3e 4b 95 e9 3e
       0.62299466 -0.5117076 0.3393252 0.45621714
000020 64 4a a8 3e ef 6e e0 3e e3 67 32 3f de cb 7b 3d
       0.32869256 0.43834636 0.6968977 0.06147372
000030 38 ec 5e 3e 7a cc 84 3d 41 dd 84 3e 1c d1 a3 3d
       0.21769798 0.06484313 0.25950053 0.07998869
000040 1a 89 47 3f 7a 4c 20 bf b5 e1 c2 3c e3 b2 5f 3f
       0.77943575 -0.62616694 0.023789266 0.87382334
000050 64 95 e6 3e a9 d5 47 3f 5a 73 50 3f 5b b2 20 3f
       0.4503585 0.78060395 0.8142601 0.6277215
000060 e3 a4 1f 3e b4 9c 24 3f bd 89 1f be a2 9f ff 3e
       0.15590243 0.6430161 -0.15579887 0.49926478
000070 ec 34 84 bd b2 91 0d 3e 2c 18 e1 be 1e 12 f8 bd
       -0.064554065 0.1382511 -0.43963754 -0.121128306
000080 61 bf 2c 3f 3e 70 37 3f e2 b5 bc 3e f5 f4 2b 3e
       0.6747952 0.71655643 0.36857516 0.16792662
000090 23 0f 10 3d a4 48 a3 3e 8e 35 97 3e ee ba ec 3e
       0.035170685 0.31891358 0.29533046 0.46236366
0000a0 00 30 ff be 46 84 35 be 67 31 9c 3c ff 9a b0 3e
       -0.4984131 -0.1772624 0.019066526 0.34493253
0000b0 85 a1 d2 3d 9f 90 08 3f 1d 7c 95 3e 9f fd ff 3e
       0.10284714 0.53345674 0.29196253 0.49998185
0000c0 7a fd 06 3f 49 c8 b7 bd c7 52 7f 3d d8 fc 9c 3d
       0.52730525 -0.08973748 0.062334802 0.076654136
0000d0 cb 70 e4 3e f5 87 c6 3e a3 b9 60 be 4c 0e fc be
       0.44617304 0.38775602 -0.21945815 -0.49229658
0000e0 c8 3a 87 3e 1b f8 a8 3e 6c bb a6 3e e0 d0 16 be
       0.26412034 0.3300179 0.32564867 -0.14728117
0000f0 3b 34 91 3e e1 81 74 3e f7 5f 01 3f 71 f9 f7 3d
       0.2836016 0.2387767 0.50537056 0.12108124
000100 6c eb d5 3e e2 f8 64 3e c5 b6 38 3f a6 56 92 3e
       0.41781175 0.22360566 0.72153884 0.28581733
000110 90 40 81 be e9 56 ca 3c 54 f4 d7 3e 76 40 83 be
       -0.2524457 0.024699645 0.42178595 -0.25635117
000120 21 82 14 3f 36 15 22 3f fa 01 0e be a3 f0 1d 3f
       0.5801106 0.63313615 -0.13867941 0.6169531
000130 49 a3 29 3f 77 2c ab 3d 29 1d 3e 3e de 22 df 3d
       0.6626478 0.0835809 0.18565811 0.10895322
000140 48 8d 0d 3f bb 3e 02 bf 40 b1 b4 3e d8 e5 28 bf
       0.55293703 -0.5087697 0.3529148 -0.65975714
000150 b7 e1 cf bd 4c b8 86 3e 6a 5b 24 bd 9f b1 ee 3e
       -0.101504736 0.26312482 -0.04012624 0.4661989
000160 05 0d c8 bd dc 85 64 3e 64 1c 02 3f 86 a6 09 3f
       -0.09768108 0.22316688 0.5082457 0.5376972
000170 41 6f 80 3e 6b 58 5a 3e bf 71 df bd 5d ee 0d 3f
       0.2508488 0.21322791 -0.10910367 0.5544184
000180 80 7c 60 3e 18 4e 16 bd aa fc 0e 3f 61 1f 20 be
       0.21922493 -0.03669557 0.55854285 -0.1563697
000190 bd d9 5d bf 25 cd 02 be f8 c6 e8 3e b2 00 29 3f
       -0.8666037 -0.12773569 0.454643 0.66016686
0001a0 1b 06 e7 3d 82 2b 02 3f 17 a4 6e 3e 78 13 ce 3e
       0.112804614 0.5084764 0.23304783 0.40249228
0001b0 74 90 8c be e4 c9 e8 3b 8b 2e 24 3f 50 d9 c5 be
       -0.2745396 0.0071041454 0.6413352 -0.3864236
0001c0 d8 4b 81 bc 35 2a 7a 3f 6b 40 c5 3e b7 5d fe 3e
       -0.015783235 0.9772065 0.3852571 0.49680874
0001d0 28 5a 3f 3f fb b6 f1 3e 8f df 94 be 00 1b 11 3e
       0.7474694 0.47209916 -0.29076812 0.14170456
0001e0 87 0b 0d 3f f6 59 91 3e 25 47 05 3e 8a 3c cb bd
       0.55095714 0.28388947 0.1301542 -0.09923656
0001f0 32 c8 ac be 0d 3a 64 3f 49 92 5e 3e 1f 55 21 bf
       -0.33746487 0.8915108 0.21735491 -0.6302051
000200 32 7a 3f bd f0 6e 21 bf 72 6a 21 bf a7 1e c1 be
       -0.046747394 -0.630599 -0.6305305 -0.37718698
000210 b0 a7 b9 3e e2 b1 9e be be a8 ed 3e bb e7 a8 3d
       0.36260748 -0.3099509 0.46417803 0.08247324
000220 68 8d a3 3e c8 95 3d be 40 f0 11 3f cf 36 b5 3d
       0.31943822 -0.18514168 0.5700722 0.088483445
000230 c6 9c c3 3d 2a b9 66 3f 64 d6 e8 3e 84 d9 26 be
       0.095513865 0.9012629 0.45476067 -0.16293913
000240 be e5 b2 3e 75 72 18 3f 31 99 0b 3f d6 eb b3 3e
       0.34940904 0.5954965 0.54530627 0.35140866
000250 e6 1b 15 3f ff 38 e9 3e eb dd ee 3d 7a 22 3d 3e
       0.58245695 0.45551297 0.11663421 0.18470183
000260 a0 4f 01 3f 06 52 95 3e 8a df 40 bf fd 77 5d be
       0.50512123 0.2916414 -0.75341094 -0.21627803
000270 2e a4 7b 3e a9 47 38 3f 43 13 17 be 70 33 f4 3e
       0.24574348 0.71984345 -0.14753442 0.47695494
000280 31 4f be 3e 07 c5 94 3e 75 cf 46 3f 4e 75 49 3f
       0.37169793 0.2905657 0.77660304 0.7869462
000290 96 9a 88 be 8f 26 81 3e 96 7a 0d be 1a 58 20 3f
       -0.2668044 0.2522473 -0.13816294 0.6263443
0002a0 0c 62 7b be 2b c1 ab bd 98 2d f7 be 6b 75 91 bd
       -0.2454912 -0.08386453 -0.48276973 -0.07102474
0002b0 80 19 ee 3d 72 59 3f bd c5 b9 38 be 52 01 6f be
       0.116259575 -0.04671616 -0.18039615 -0.23340347
0002c0 f7 f6 0c 3f 26 a4 cb bb e0 6f a5 3d ec 92 0a 3f
       0.5506434 -0.0062146364 0.08077979 0.54130435
0002d0 3d 7b d2 be 6e e1 50 bd c4 95 1e 3f c2 8a d3 bd
       -0.41109648 -0.050996237 0.61947274 -0.103292
0002e0 ba 0e 8a bd 88 3b d2 3c 38 a7 77 be 53 1a 1d 3e
       -0.0674109 0.025663152 -0.24184883 0.15342073
0002f0 a2 b6 f2 be 2c 84 3d 3f 0a e3 53 bc df 6e 31 3f
       -0.47404963 0.74029803 -0.012932548 0.693098
000300 7f 82 25 3f ff 6d 3e bd a9 dd ba 3e 9f bb 95 be
       0.64652246 -0.04649162 0.36497238 -0.29244706
000310 75 46 33 3f 3c b2 b1 3d dc 13 c4 bd b1 f3 fc be
       0.70029384 0.08676574 -0.095741004 -0.49404672
000320 74 81 97 be 8b 3c 6c bd 5b 31 ed 3e e9 a8 ed be
       -0.29590952 -0.057674926 0.46326718 -0.4641793
000330 1c 60 29 bd e2 5e 0c 3f 7d 6c bb bd fa 8b 47 3f
       -0.041351423 0.5483228 -0.09151552 0.7794796
000340 04 66 9f 3f e3 93 2d 3f 2d 52 90 bc f5 8e 26 bf
       1.2453008 0.6780378 -0.01761731 -0.65061885
000350 76 a6 20 3d 28 1a a1 be 72 9b 01 be 35 a2 b2 3e
       0.03922125 -0.31465268 -0.12656954 0.3488938
000360 d9 c6 b8 3d 3d 1e e3 bd 56 9c 8b bd 70 a0 4a 3c
       0.09022302 -0.11089752 -0.06816928 0.012367353
000370 4b 71 ac 3d ad ea c5 3d bc 84 30 bd fc 59 74 3c
       0.084200464 0.096639015 -0.043095335 0.014914032
000380 4d 71 9a bd 30 48 68 3d e1 38 43 3d 81 31 96 bd
       -0.07541142 0.05670947 0.047661666 -0.07333661
000390 41 85 56 3d fd 83 c7 bd 28 94 e0 3d d6 c0 58 3b
       0.052373175 -0.09741972 0.109657586 0.0033073924
0003a0 b5 04 9f 3d 2f 21 1d bc 44 f6 d5 3c 8f 75 db 3d
       0.0776457 -0.009590431 0.026118405 0.10715782
0003b0 22 31 c3 bd eb ae 00 3e e8 58 70 3d 29 ed cb ba
       -0.09530856 0.12566726 0.058678538 -0.001555835
0003c0 08 8a f6 3c 17 ef d4 3d c0 b9 44 3d 25 32 e2 bc
       0.030095115 0.10397165 0.048028708 -0.027611801
0003d0 58 57 9d 3c b4 cf 84 3c 04 01 e6 3d 2b 40 d9 bd
       0.019206688 0.016212322 0.112306625 -0.10607942
0003e0 96 5a 22 3d 80 1a fd 3d e8 d2 ec bd 3f fa db bd
       0.03963717 0.1235857 -0.11563665 -0.1074109
0003f0 ef 93 a3 3c c6 68 de bd 11 18 c4 3d ec 42 b8 bd
       0.019968001 -0.10859828 0.09574903 -0.08997139

l1.bias f4 [8]
000000 96 fa 41 3f a6 63 09 3f ee 68 21 3f 5d c2 9d 3f
       0.7577299 0.53667676 0.63050735 1.232494
000010 b4 c6 0c be 0d 33 f6 bd 1b fe 82 3f 01 fd 3a 3f
       -0.13747674 -0.12021456 1.0233797 0.73042303

l2.weight f4 [8, 8]
000000 9b ee 5f 3e e1 65 8e be 8a f7 92 3d 0a 07 98 bd
       0.21868365 -0.27812102 0.071761206 -0.074232176
000010 4f fc 23 bd e5 d6 15 3e cd 00 9b bd 94 fe 99 be
       -0.040035542 0.14632757 -0.07568512 -0.3007704
000020 d3 40 9c be d9 d3 c7 3d 29 94 98 3f 6e b3 8a 3e
       -0.30518207 0.097572036 1.1920215 0.2709002
000030 90 d8 48 bd bd 0d c7 bd d3 a6 7e be 18 ba 03 3f
       -0.049034655 -0.09719417 -0.24868326 0.5145583
000040 de bd af 3f 6c 8c 0e bf 06 74 75 bf 18 83 bb 3f
       1.3729818 -0.55683017 -0.9588016 1.4649382
000050 ad 55 ab bc 6d 19 d1 bd e9 0e c1 be 8a 24 bd 3f
       -0.020914877 -0.10209928 -0.37706688 1.4776776
000060 3d b0 f2 3e 3f eb e8 be bf 28 f7 3e 4e 2a 4f 3f
       0.47400084 -0.4549198 0.48273274 0.80923927
000070 3e 6e 90 be b8 7f 2b be 8e 84 bf bf 2b 3e 4a 3f
       -0.28209108 -0.1674794 -1.4962327 0.7900111
000080 92 3d c3 3d 9a 04 1e 3f 3c b7 8d 3f 9a 75 df bd
       0.09533228 0.6172577 1.1071544 -0.109111026
000090 43 76 b4 3e b7 c1 dd bc b2 d4 0e bf 5b f2 1a 3f
       0.35246477 -0.02706991 -0.557933 0.60526055
0000a0 1c 27 0e 3e c4 14 4c be c9 f3 cd bd c6 0f f1 bd
       0.13882107 -0.19929796 -0.10056264 -0.11770587
0000b0 f4 47 43 3e 84 d1 e1 3d ed 3e 12 3e 5b f8 da 3d
       0.19070417 0.1102629 0.14281817 0.10691901
0000c0 88 30 99 3d e6 c9 15 3f 9f 34 43 3f dd e5 92 3f
       0.0747996 0.585112 0.7625217 1.1476399
0000d0 ab df f8 bd 5c 89 23 3d c6 c2 83 3f e2 33 54 bf
       -0.12152036 0.039925918 1.0293815 -0.82891667
0000e0 4e 79 71 3f ee 6a 9b 3f 20 d5 0f 3e c4 8e 60 bf
       0.9432572 1.2142007 0.14046144 -0.87717843
0000f0 4d c2 8d 3e ed ee 94 be db d4 15 3f 50 16 85 3f
       0.27687302 -0.29088536 0.58527917 1.0397434

l2.bias f4 [8]
000000 a2 2e 59 be 2b f7 b9 be b9 cd 37 3f a4 c2 75 bd
       -0.21209195 -0.36321387 0.7179828 -0.060000077
000010 26 28 24 be e7 7f b7 be ea f8 cc 3e f7 e5 3c 3e
       -0.1603094 -0.3583977 0.40033656 0.184471

l3.weight f4 [7, 8]
000000 80 4c a9 3e 28 2b b1 bf 7d 90 a5 bf e6 9d 7d bf
       0.33066177 -1.3841295 -1.2934719 -0.9906906
000010 6d 49 b1 bf eb c3 c0 3c b5 68 ba 3e cd ac 24 3d
       -1.3850533 0.023530921 0.3640801 0.04020386
000020 6c 92 a2 3e 06 5c 45 3f 14 7d e9 3e 3c 03 27 3f
       0.31752336 0.7709354 0.4560324 0.6523931
000030 ac 0c 51 be 62 2e 14 bd ac 19 dd bf 7c ed 72 bf
       -0.2041499 -0.036177047 -1.727346 -0.9489362
000040 ab 6a 8d bd 37 d9 73 3f df b4 9d be 64 c0 d6 bf
       -0.06905111 0.9525332 -0.30802056 -1.6777463
000050 be 61 55 3c cf 75 87 3e c6 d7 20 3f 9f cd d8 bf
       0.013023792 0.26457068 0.62829244 -1.693775
000060 44 15 da 3d 9c d2 87 bf bf 1f d7 3e 55 69 4a bf
       0.10648587 -1.0611148 0.42016408 -0.79066974
000070 01 c2 fa be e8 22 96 be 49 a3 57 bf dc 15 c1 3e
       -0.48976138 -0.29323506 -0.8423353 0.3771199
000080 11 b4 0e 3e f1 a5 93 3e 17 1d aa bf 8e 99 c2 bf
       0.13935877 0.2883754 -1.3290128 -1.5203111
000090 50 a4 03 3f 40 f9 70 bd dd 61 90 bf 17 28 41 3f
       0.51422596 -0.058831453 -1.1279866 0.754518
0000a0 e1 21 b8 bd 61 7e 29 3f dd 21 48 be 43 e4 3a 3d
       -0.08990837 0.66208464 -0.19544168 0.045627844
0000b0 ee c9 44 3f c3 2e 50 3e b5 f4 ea bf 53 51 4b 3d
       0.7687062 0.20330338 -1.8355929 0.049638104
0000c0 7c 00 41 3e c6 9f 8c bf 47 8b 21 3f 3c bd cf 3e
       0.18847841 -1.0986259 0.63103145 0.40574062
0000d0 0c d3 e2 bf 3c 5f 40 3d ca 5c bb bd 47 d4 eb bf
       -1.7720656 0.046965823 -0.091485575 -1.8424157

l3.bias f4 [7]
000000 b6 38 bc 3e 7c 34 0c bf fb 26 98 3e f2 36 9e 3e
       0.36762017 -0.54767585 0.2971724 0.30901295
000010 4c e8 8f be 23 c8 14 be 12 8a 11 3d
       -0.28106916 -0.14529471 0.035532065
